HW_1/models/model.pth (torch, 24689 bytes, 7 tensors)

net.0.weight f4 [64, 42]
0.18294661 0.36065444 0.22072114 0.12990999 4.5243824e-38 0.099638924 6.09725e-40 0.23668255
0.08879627 0.18562616 0.28141078 0.14445512 0.007835143 0.07201075 0.0814505 0.08030769
1.559906e-39 -3.4795356e-38 0.04355952 0.06932 0.1280202 0.13081598 -0.0037707274 0.26945016
0.18315724 0.024770025 0.324236 0.30451745 0.23760757 -0.008365548 0.29526114 0.14449489
0.06739669 0.22195819 0.22181 -0.03512686 0.24117137 -0.049125466 0.19076389 0.16206302
0.082213484 0.26534155 0.21612836 0.27963156 -0.022249669 0.027870558 3.4497126e-38 0.24265985
-6.218103e-38 0.10746735 0.013145235 -0.02475215 0.055302784 0.072099626 -0.106459975 0.14130999
0.20743771 0.16829726 1.4056021e-38 -2.6967557e-38 0.096665904 0.20770745 0.17190039 0.13571137
0.085575186 0.2480207 0.07168181 0.07083977 0.13254769 0.107066914 0.2083491 0.2766305
-0.08294469 0.25384566 -0.055537637 0.25851354 0.045201242 0.15685229 0.16111441 -3.172136e-39
0.24408057 -0.010816901 0.19991082 0.2825733 0.064386524 0.18401648 0.060201917 0.18422808
-0.004554862 0.12752433 -0.29881474 0.024575356 0.20478566 0.17624596 0.048995823 0.10587683
0.21697445 0.09295267 0.20311941 0.19417591 -0.2754843 -0.3047641 0.006854972 0.031439003
0.09216621 0.048873108 0.21402328 0.23808981 0.23615104 0.11166423 -0.062030174 0.029490562
0.15227263 0.10542205 0.25046563 0.026854934 -0.003839835 0.0374197 0.1693447 0.15244691
0.08463111 0.13644026 0.08157297 0.16059463 -0.14556995 0.05526319 0.054745905 0.079330176
0.19894302 0.012756687 0.25405595 0.18062426 0.23798631 0.08915776 0.12098321 0.14589612
0.3004751 0.053192727 0.05197966 0.27610436 0.1421178 0.16831826 0.21060593 0.35336295
0.14494292 0.2761413 0.051449396 0.18464689 0.14624156 0.20826557 0.030149136 0.26251402
0.2417694 0.11884159 0.17180653 0.26612675 0.14864002 0.09844158 0.022341425 0.11239911
0.12138648 0.24597992 0.2613892 0.25318143 0.19944052 0.19859888 0.1708798 0.13670355
0.031343523 0.24368085 0.28977135 0.14291687 2.7896304e-38 0.15006566 0.36433852 0.103870995
-0.04671279 0.1062726 0.25091007 0.017456707 0.2799681 0.18017663 0.2157103 0.14852583
0.3159248 -1.9113237e-38 0.056880932 0.041131366 0.13827209 0.13713786 0.2705944 0.028879017
0.28212765 0.17465806 0.07685507 0.14898862 0.15853722 0.12118456 0.1305956 0.20412473
0.21166448 0.1705299 0.1779739 0.15845156 0.17223701 0.19069408 0.1949887 0.24888569
0.14258176 0.22153825 0.07990789 0.21543643 4.715757e-38 -0.039793856 4.5615438e-38 0.10077264
-1.9500252e-38 1.5676036e-38 -0.039721012 0.2535513 0.07152637 0.07208868 0.2757493 0.23721437
0.14048304 0.08465982 -7.172936e-39 4.5984587e-38 0.10844687 0.34640267 0.2397043 0.21035847
0.13683254 0.12746201 0.044408634 0.16610277 -2.813327e-39 0.09618864 0.14343314 0.022919567
-0.034768816 0.12930082 -0.011186039 0.03522804 0.16626446 0.26037753 0.07330782 1.179134e-38
0.08398038 0.0153400935 0.16769122 0.17272848 0.0878265 0.19898255 0.024195172 0.27760935
00000000: 5b56 3b3e b3a7 b83e b904 623e 2007 053e
00000010: b054 7601 7e0f cc3d aaa3 0600 e95c 723e
00000020: d2da b53d c914 3e3e 1315 903e 0bec 133e
00000030: f95e 003c 5f7a 933d 85cf a63d 5c78 a43d
00000040: 62fc 1000 a671 3d81 786b 323d a5f7 8d3d
00000050: ba17 033e a0f4 053e 4f1e 77bb 5ff5 893e
00000060: 928d 3b3e 82ea ca3c 4302 a63e b6e9 9b3e
00000070: 664f 733e a70f 09bc 782c 973e 78f6 133e
00000080: 4707 8a3d 0249 633e 2922 633e 2fe1 0fbd
00000090: a1f5 763e c937 49bd 9c57 433e d9f3 253e
000000a0: 8b5f a83d d9da 873e c150 5d3e de2b 8f3e
000000b0: f044 b6bc cc50 e43c fad1 3b01 d37b 783e
000000c0: da45 a981 d817 dc3d 1d5f 573c 05c5 cabc
000000d0: 2c85 623d f8a8 933d b007 dabd 91b3 103e
000000e0: 8d6a 543e 1e56 2c3e 780e 9900 4ad3 1281
000000f0: c6f8 c53d 43b1 543e a806 303e ecf7 0a3e
00000100: 0b42 af3d 23f9 7d3e eacd 923d 7114 913d
00000110: 95ba 073e e645 db3d 7759 553e 83a2 8d3e
00000120: e8de a9bd 0ff8 813e 6f7b 63bd e35b 843e
00000130: f024 393d e39d 203e 2dfb 243e a08a 2280
00000140: 42f0 793e 5f39 31bc 6cb5 4c3e 73ad 903e
00000150: 15dd 833d d16e 3c3e 4996 763d 49a6 3c3e
00000160: f440 95bb bd95 023e 3ffe 98be 4252 c93c
00000170: 55b3 513e d279 343e d8af 483d f4d5 d83d
00000180: 8d2e 5e3e f85d be3d 89fe 4f3e 0dd6 463e
00000190: 470c 8dbe 0a0a 9cbe ac9f e03b 2fc6 003d
000001a0: a3c1 bc3d 2b2f 483d eb28 5b3e d1cd 733e
000001b0: 94d1 713e 37b0 e43d 5a13 7ebd 3196 f13c
000001c0: 5bed 1b3e 84e7 d73d 083d 803e e1fe db3c
000001d0: bea5 7bbb 6645 193d b268 2d3e 0b1b 1c3e
000001e0: 1353 ad3d ffb6 0b3e bb0f a73d eb72 243e
000001f0: 4a10 15be a85b 623d 3e3d 603d dc77 a23d
00000200: b8b7 4b3e 6c01 513c 9f13 823e 91f5 383e
00000210: afb2 733e 5898 b63d 0cc6 f73d cb65 153e
00000220: dfd7 993e 9ee0 593d a0e8 543d 8d5d 8d3e
00000230: 5487 113e 9f5b 2c3e 15a9 573e fdeb b43e
00000240: eb6b 143e 6462 8d3e 9abc 523d 1314 3d3e
00000250: 59c0 153e 9243 553e 52fb f63c 3d68 863e
00000260: 6692 773e 3863 f33d 0dee 2f3e c441 883e
00000270: 1735 183e bd9b c93d 5d05 b73c 8131 e63d
00000280: 7a99 f83d 29e2 7b3e ced4 853e ffa0 813e
00000290: 233a 4c3e 815d 4b3e 1dfb 2e3e 04fc 0b3e
000002a0: 1162 003d 7987 793e e95c 943e cd58 123e
000002b0: c6e1 1701 d0aa 193e 948a ba3e 51ba d43d
000002c0: e955 3fbd 73a5 d93d 4977 803e 5e01 8f3c
000002d0: fb57 8f3e 3980 383e 29e3 5c3e 2817 183e
000002e0: e5c0 a13e ee1f d080 fbfb 683d 5d79 283d
000002f0: 3397 0d3e de6d 0c3e 598b 8a3e b093 ec3c
00000300: 0973 903e 90d9 323e 3166 9d3d 7990 183e
00000310: 9557 223e 9c2f f83d daba 053e 1306 513e
00000320: 93be 583e 649f 2e3e ca3e 363e 2041 223e
00000330: e65e 303e 4f45 433e 1eab 473e e4db 7e3e
00000340: f400 123e ecda 623e bfa6 a33d 5e9b 5c3e
00000350: 0860 8001 e2fe 22bd a45a 7801 e361 ce3d
00000360: c556 d480 69b2 aa00 80b2 22bd 7ad1 813e
00000370: 6b7c 923d 3ba3 933d 032f 8d3e 53e8 723e
00000380: c9da 0f3e 2162 ad3d 3a1b 4e80 295d 7a01
00000390: 6519 de3d b15b b13e 0b75 753e 3668 573e
000003a0: d41d 0c3e 6785 023e d4e5 353d d816 2a3e
000003b0: 69a2 1e80 8dfe c43d 23e0 123e d1c1 bb3c
000003c0: bf69 0ebd 6f67 043e a645 37bc 474b 103d
000003d0: 3b41 2a3e 3450 853e 6922 963d 7565 8000
000003e0: e8fd ab3d 0455 7b3c 3fb7 2b3e bcdf 303e
000003f0: 61de b33d 15c2 4b3e f434 c63c d022 8e3e

net.0.bias f4 [64]
0.17739864 0.15413743 0.13153283 0.30728406 0.32222202 0.08714243 0.08207719 0.19467795
0.25007132 -0.08848463 0.08320533 0.06886074 0.20172675 0.2773463 0.13772267 0.19896331
0.30062455 0.29385442 0.04563413 0.29657552 0.30345857 0.17128924 0.18634887 0.14277576
0.21122332 0.017814387 0.19361211 0.18677478 0.26124156 0.07949147 0.2104837 0.21655606
0.14131273 0.1317272 0.12716345 0.03224195 0.06890523 0.26154366 0.25826144 0.22173324
0.053917557 0.2520796 0.16953392 0.116459586 0.14388995 0.1966258 0.03452704 0.11159153
0.050934162 0.25963068 0.26602656 0.12302507 0.15021943 0.05029862 0.31967035 0.23540826
0.2113894 0.28330162 0.28709292 0.20903525 0.18983932 0.2320793 0.07581977 0.17741011
00000000: fda7 353e 34d6 1d3e 8bb0 063e 5654 9d3e
00000010: 49fa a43e bb77 b23d 1618 a83d a859 473e
00000020: 5909 803e 6e37 b5bd 8e67 aa3d dc06 8d3d
00000030: 7591 4e3e 5600 8e3e 2c07 0d3e 0abd 4b3e
00000040: 76eb 993e 1674 963e daea 3a3d bfd8 973e
00000050: ec5e 9b3e 7266 2f3e 3dd2 3e3e cf33 123e
00000060: ed4a 583e 7aef 913c 4142 463e e341 3f3e
00000070: 74c1 853e 6ccc a23d 0a89 573e dfc0 5d3e
00000080: 49b4 103e 7fe3 063e 2337 023e 2310 043d
00000090: 2f1e 8d3d 0de9 853e d83a 843e 0a0e 633e
000000a0: a8d8 5c3d 9410 813e 4d9a 2d3e 5d82 ee3d
000000b0: e357 133e 4658 493e 3a6c 0d3d 1a8a e43d
000000c0: 57a0 503d 50ee 843e a234 883e 91f4 fb3d
000000d0: 1fd3 193e ed05 4e3d d5ab a33e dd0e 713e
000000e0: 7676 583e e90c 913e d8fd 923e 560d 563e
000000f0: 3d65 423e 32a6 6d3e 6547 9b3d ffaa 353e

net.2.weight f4 [32, 64]
0.09676539 0.20788582 0.14980245 0.22933482 0.109834574 0.11909145 0.16513377 0.12853569
0.224376 0.07751579 0.04150459 0.26561016 0.17789237 0.1764484 0.2058799 0.20328824
0.16056225 0.28057504 0.26786134 0.11172489 0.058763538 0.22915341 0.23631626 0.13870539
0.11161253 0.17611496 0.1748098 0.21310171 0.18333492 0.19132596 0.05834314 0.15602973
0.07824177 0.17344607 0.21450758 0.11952921 0.059593257 0.15348858 0.122794084 0.099666394
0.17315012 0.21795265 0.17392449 0.0929996 0.21095057 0.054319885 0.16352916 0.18605104
0.1322457 0.17625108 0.2573387 0.13723505 0.17383489 0.23842528 0.10507996 0.19970721
0.2635818 0.08026937 0.2678267 0.10976482 0.14107926 0.036864515 0.13503565 0.23218353
0.030808851 0.0033376254 0.15099175 0.25842983 0.2623692 0.10025291 0.30037192 0.22406778
0.15187307 -0.062100302 0.13956426 0.17559828 0.24363531 0.17793742 0.04474588 0.117754295
0.24359488 0.06865465 0.36994743 0.2360872 0.13536638 0.23440997 0.1548751 0.027206738
0.121437006 0.10225244 0.18592077 0.25326976 0.28992215 0.03620064 0.09619775 0.087655626
0.20568301 0.09905077 0.26426283 0.10680799 0.078581534 0.2103684 0.10586201 0.19352269
0.05289413 0.14276253 0.10337353 0.025286093 0.073839866 0.11015912 -0.0052723745 0.08234759
0.21944098 0.060945004 0.24491923 0.16208804 0.13572995 0.16640007 0.075315654 0.23645777
0.075550064 0.27343768 0.055213686 0.23222704 0.30597752 0.14775853 0.18251146 0.12904757
0.1414295 0.12814243 0.15652649 0.058232576 0.17229639 0.19285424 0.12425237 0.15110528
0.13432218 -0.026941583 0.109481506 0.10011022 0.15458913 0.21926011 0.14240924 0.13418736
0.06838155 0.26551166 0.3382714 0.078392066 0.17760164 0.08372778 0.07431029 0.14190847
0.21245404 0.16192202 0.04905206 0.072399944 0.08289485 0.21030153 0.18456878 0.046059135
0.24314587 0.047490418 0.26666126 -0.049978524 0.06214722 0.15909547 0.27795488 0.1538536
0.106272966 0.16004346 0.11253884 0.0010632218 0.18994716 0.23284417 0.06132096 0.10512051
0.21070468 0.06813509 0.17406918 0.15951268 0.0153971985 0.16061635 0.12859397 0.07877835
0.22485457 0.26476043 0.12207335 0.13663188 0.2800725 0.07759158 0.08552242 0.29873914
-0.047501024 -0.031019345 -0.09454985 0.0839161 -0.13385248 0.03163522 -0.00055421586 -0.071004264
-0.01991648 -0.07714966 0.055453632 -0.040760156 -0.0500713 0.10124852 -0.054361265 -0.13013332
-0.08067268 -0.09275543 0.002506128 0.029913677 -0.039861128 0.042395286 -0.039982636 -0.13270433
0.048316285 -0.023265334 -0.03183856 -0.12869357 0.06517473 -0.0951605 0.0654059 -0.030606398
-0.077383734 -0.052351303 -0.104531445 -0.008061508 0.036203917 0.054128863 0.07086354 0.01826038
-0.06698785 -0.10135092 0.06395193 0.060519986 -0.05267517 -0.11411654 -9.958176e-05 0.013787921
-0.03883414 0.023200562 -0.09907394 -0.09303015 0.03759947 -0.0880668 -0.03976655 -0.058430463
-0.028134746 -0.12078714 -0.13430475 -0.036109824 -0.10214552 0.031722054 -0.11849078 -0.0231229
00000000: ef2c c63d 05e0 543e d065 193e bfd6 6a3e
00000010: f3f0 e03d 38e6 f33d d418 293e dc9e 033e
00000020: d2c2 653e 99c0 9e3d b800 2a3d 0efe 873e
00000030: 6b29 363e e4ae 343e 2ed2 523e cb2a 503e
00000040: 6e6a 243e 88a7 8f3e 1f25 893e 05d0 e43d
00000050: 09b2 703d 31a7 6a3e e4fc 713e c908 0e3e
00000060: 1c95 e43d 7b57 343e 5701 333e 5637 5a3e
00000070: 26bc 3b3e f4ea 433e 37f9 6e3d 42c6 1f3e
00000080: 393d a03d d99b 313e e0a7 5b3e bbcb f43d
00000090: 0f18 743d 1c2c 1d3e 777b fb3d e51d cc3d
000000a0: 444e 313e fb2e 5f3e 4319 323e 9376 be3d
000000b0: 6d03 583e 877e 5e3d 3074 273e 2a84 3e3e
000000c0: 6b6b 073e 2a7b 343e e6c1 833e 5887 0c3e
000000d0: c601 323e c225 743e 2934 d73d 0c80 4c3e
000000e0: 32f4 863e 4464 a43d 9520 893e 61cc e03d
000000f0: 1577 103e 3fff 163d c946 0a3e 85c1 6d3e
00000100: d862 fc3c 10bc 5a3b 959d 1a3e ea50 843e
00000110: 4155 863e 6651 cd3d 59ca 993e 0672 653e
00000120: 9d84 1b3e e35c 7ebd efe9 0e3e 09d0 333e
00000130: 897b 793e 3a35 363e 7547 373d 2a29 f13d
00000140: f070 793e cf9a 8c3d c069 bd3e d8c0 713e
00000150: 7c9d 0a3e 2b09 703e 9497 1e3e aae0 de3c
00000160: f7b3 f83d ba69 d13d 0462 3e3e 93ac 813e
00000170: ad70 943e 1f47 143d 5303 c53d cb84 b33d
00000180: 919e 523e 21db ca3d 754d 873e 26be da3d
00000190: 5bef a03d d06a 573e 2ece d83d d02a 463e
000001a0: 84a7 583d 5730 123e 80b5 d33d c824 cf3c
000001b0: 5b39 973d 1b9b e13d e2c3 acbb daa5 a83d
000001c0: 23b5 603e 78a1 793d 1bcc 7a3e 68fa 253e
000001d0: cbfc 0a3e c864 2a3e 183f 9a3d fc21 723e
000001e0: feb9 9a3d 0600 8c3e bf27 623d edcc 6d3e
000001f0: 16a9 9c3e 034e 173e 49e4 3a3e 0c25 043e
00000200: e5d2 103e c537 033e 7b48 203e 4885 6e3d
00000210: 776e 303e 957b 453e 0778 fe3d 58bb 1a3e
00000220: c18b 093e 98b4 dcbc d737 e03d 9606 cd3d
00000230: 9d4c 1e3e b985 603e bad3 113e 6968 093e
00000240: a00b 8c3d 25f1 873e e931 ad3e 058c a03d
00000250: 34dd 353e 7879 ab3d fe2f 983d 7450 113e
00000260: 8d8d 593e e3ce 253e d0ea 483d 6c46 943d
00000270: c6c4 a93d 4959 573e 99ff 3c3e 81a8 3c3d
00000280: 3bfb 783e 5085 423d d387 883e 48b6 4cbd
00000290: 158e 7e3d ece9 223e 1a50 8e3e cc8b 1d3e
000002a0: a4a5 d93d 6fe2 233e c37a e63d ce5b 8b3a
000002b0: 8281 423e b46e 6e3e b02b 7b3d 6c49 d73d
000002c0: f8c2 573e 698a 8b3d 313f 323e 4b57 233e
000002d0: 8844 7c3c 9d78 243e 23ae 033e 8b56 a13d
000002e0: 4740 663e ae8e 873e 9801 fa3d 3ae9 0b3e
000002f0: aa65 8f3e 56e8 9e3d 6126 af3d 56f4 983e
00000300: 6f90 42bd 481c febc 5aa3 c1bd 34dc ab3d
00000310: a010 09be ef93 013d cc48 11ba af6a 91bd
00000320: e327 a3bc a400 9ebd 5923 633d 1ff4 26bd
00000330: 9017 4dbd 625b cf3d eba9 5ebd ab41 05be
00000340: b837 a5bd 8ff6 bdbd da3d 243b 870d f53c
00000350: 6c45 23bd aea6 2d3d d5c4 23bd a5e3 07be
00000360: 4ce7 453d f196 bebc 2669 02bd 3fc8 03be
00000370: 547a 853d 82e3 c2bd 87f3 853d 45ba fabc
00000380: 5d7b 9ebd 526e 56bd 9514 d6bd 6a14 04bc
00000390: 8f4a 143d 3ab6 5d3d e720 913d cb96 953c
000003a0: ed30 89bd 1291 cfbd 3bf9 823d cee3 773d
000003b0: ebc1 57bd efb5 e9bd 8dd6 d0b8 bbe6 613c
000003c0: 8c10 1fbd 1b0f be3c 47e7 cabd 9786 bebd
000003d0: e701 1a3d 5e5c b4bd 40e2 22bd c854 6fbd
000003e0: d77a e6bc 405f f7bd 2f87 09be e5e7 13bd
000003f0: ac31 d1bd fcee 013d 4bab f2bd 3c6c bdbc

net.2.bias f4 [32]
0.22670671 0.111476675 0.20380118 0.060111094 0.068030976 0.034972932 0.072804965 0.13486691
0.11491624 0.2536782 -0.09618053 0.035196755 0.121402636 -0.027051175 0.17540877 0.033133823
0.15403779 0.15230714 0.027995072 -0.013187081 0.032218363 0.093984984 -0.04926698 0.081224695
0.090758905 0.17568877 0.065752365 -0.029676005 0.060440384 0.08548127 0.21291073 0.068828486
00000000: ce25 683e e24d e43d 42b1 503e 0d37 763d
00000010: d353 8b3d c73f 0f3d c51a 953d 8d1a 0a3e
00000020: 3559 eb3d 1ce2 813e 4cfa c4bd 792a 103d
00000030: f2a1 f83d 6d9a ddbc 5b9e 333e 55b7 073d
00000040: 15bc 1d3e 67f6 1b3e ec55 e53c a00e 58bc
00000050: 67f7 033d 337b c03d 2ccc 49bd 2259 a63d
00000060: cedf b93d c2e7 333e 2da9 863d 181b f3bc
00000070: 5690 773d ce10 af3d 4505 5a3e f3f5 8c3d

net.4.weight f4 [16, 32]
0.09060807 -0.04511744 0.024269218 -0.024279162 1.5913704e-38 -0.07886322 -0.17629956 0.14434512
0.109497815 0.0073846183 -0.036127433 -0.10105906 0.10673019 -0.00024406314 -0.16056883 -0.038141232
0.040442515 0.057696756 -8.19334e-40 0.020694932 -0.09396416 -0.18974268 -0.031879507 -7.56359e-40
-0.18257856 -0.014397925 -1.738943e-38 0.0029241387 0.03134028 -0.09129971 -0.13150425 7.498874e-39
0.017097443 0.28583312 0.24761409 0.15127121 0.026166257 -0.06225574 0.02120093 0.07303675
0.23989932 0.041177064 0.022136813 0.27775314 -0.47802693 1.6349347e-06 0.27389544 0.19449702
0.3177311 0.26308617 0.14665686 -0.0016813633 0.3079236 0.27990174 -0.03071749 0.055843376
0.043285713 -0.016751805 -0.0013937221 -0.0017198117 -0.002619534 0.099279106 0.31199467 0.13789251
0.18784824 0.047465246 0.07644759 4.309632e-39 0.18209594 -1.2672276e-38 1.1233508e-38 0.15839796
0.18917678 -0.0035625857 -1.142427e-39 0.012705805 -0.623291 1.0806979e-38 0.20138988 -0.038222473
0.16627683 0.07689683 0.06573798 1.6207658e-38 0.07488786 0.10153699 1.5306882e-09 0.1657087
0.15503052 0.040773746 0.082083896 0.0010104949 -1.0664463e-38 0.0051777605 -0.00974759 0.080552176
-0.015067246 -0.01566953 -0.015288524 -1.4034101e-38 -0.015307544 1.4759568e-38 1.859244e-39 -0.015233991
-0.015334473 -0.014897062 1.673798e-38 -0.015546776 0.01782756 -6.882941e-39 -0.008456647 -0.016042354
-0.015453037 -0.01590545 -0.008609497 1.1428172e-38 -0.015765574 -0.015743027 -3.9165362e-38 -0.014749386
-0.015407469 -0.015623868 -0.0153948795 1.8162797e-38 -1.0144263e-38 -0.015595616 -0.015432549 -0.014800282
-0.13282931 -0.16032912 -0.06967707 0.06038495 -5.73169e-40 -0.1101606 -0.044526823 -0.043409217
1.3193096e-38 -0.11590652 -0.11752096 6.914192e-39 0.0073232925 0.00040407677 -0.13116306 -0.048518028
-0.090219595 -0.18855101 1.111403e-38 0.017245457 -0.08613494 -0.17457944 -0.011756273 1.2904032e-38
-0.06785976 -0.074768335 -1.2100647e-38 0.0039082463 0.10991872 -0.046772815 -0.06337159 9.55743e-39
0.22502193 0.19858156 0.28987867 -0.0008778595 0.2590511 -0.10038292 -0.04513885 -0.0029031893
0.035052303 0.204571 1.4394516e-06 0.14364552 -0.68055433 1.641892e-39 0.086739846 0.19344404
0.11028704 0.22776367 0.1894478 1.89377e-39 0.003949595 0.15261939 1.1389655e-09 0.2284144
-0.004382558 0.30434355 0.10117229 0.0026409824 -0.09750474 0.13809924 0.2236439 -0.02327254
-0.09508079 0.01797635 0.09042095 0.09228331 -0.0065157013 -0.095468074 -0.07578847 -0.032659
0.08661807 0.014210994 -0.07567323 -0.119649485 0.01969218 -4.0134413e-11 -0.0789884 0.008862725
0.028379198 -0.14174233 -1.40849585e-14 0.00036452882 0.089108795 0.062982015 0.053740934 -0.0007203658
-0.07371567 0.056860503 -0.0152580505 6.4849765e-08 0.0051622624 -0.22065462 0.11254075 5.2871246e-20
-0.10641351 0.07780952 0.046218462 1.9340853e-38 -0.00049099245 0.06019744 -0.006516243 -0.08207672
-1.5585103e-38 -0.12831338 2.34789e-39 -0.07601476 -1.8968764e-38 6.160901e-39 -1.7095115e-38 0.07030189
-0.078963734 -0.14020401 1.1855373e-38 -1.0576149e-38 0.020922052 0.12257946 1.635638e-39 5.52454e-39
-0.010649594 0.11960814 5.415819e-38 -6.980532e-39 -0.008244494 0.07567295 -0.07077725 1.2511378e-38
00000000: b990 b93d 11cd 38bd 3dd0 c63c 18e5 c6bc
00000010: ef48 ad00 0a83 a1bd df87 34be 35cf 133e
00000020: 6440 e03d abfa f13b 5cfa 13bd 0df8 cebd
00000030: 5c95 da3d 33eb 7fb9 286c 24be fb39 1cbd
00000040: 0da7 253d 6f53 6c3d f8eb 0880 6b88 a93c
00000050: 4870 c0bd e84b 42be 1694 02bd 6c3c 0880
00000060: e0f5 3abe 46e5 6bbc a85a bd80 e8a2 3f3b
00000070: aa5e 003d 58fb babd 0da9 06be cfa7 5100
00000080: f00f 8c3c b858 923e 8c8e 7d3e d7e6 1a3e
00000090: 9e5a d63c e0ff 7ebd 93ad ad3c 4b94 953d
000000a0: 2ba8 753e 48a9 283d 4358 b53c a935 8e3e
000000b0: f2bf f4be ee6f db35 063c 8c3e 3a2a 473e
000000c0: a7ad a23e 3bb3 863e 372d 163e 3161 dcba
000000d0: 29a8 9d3e 484f 8f3e 3fa3 fbbc 06bc 643d
000000e0: 5c4c 313d 153b 89bc 8ead b6ba 4e6b e1ba
000000f0: 7dac 2bbb d852 cb3d c4bd 9f3e b233 0d3e
00000100: 4a5b 403e eb6a 423d 8e90 9c3d 80ed 2e00
00000110: 5c77 3a3e 26fd 8980 7352 7a00 1333 223e
00000120: 8fb7 413e 457a 69bb 9f70 0c80 022c 503c
00000130: 0090 1fbf 76ad 7500 2639 4e3e 2b8f 1cbd
00000140: 7944 2a3e 167c 9d3d a2a1 863d 5b7c b000
00000150: ce5e 993d a0f2 cf3d 4e60 d230 8baf 293e
00000160: 52c0 1e3e 5f02 273d 9a1b a83d 9572 843a
00000170: 2f20 7480 34aa a93b 5bb4 1fbc 8af8 a43d
00000180: 9cdc 76bc 635d 80bc b87c 7abc 5dd1 9880
00000190: 7ecc 7abc acb7 a000 d13e 1400 fd97 79bc
000001a0: 713d 7bbc cf12 74bc ae42 b600 e8b7 7ebc
000001b0: 1a0b 923c d7f2 4a80 c08d 0abc 416b 83bc
000001c0: bc2e 7dbc 254c 82bc d90e 0dbc 1871 7c00
000001d0: ce26 81bc 85f7 80bc 8c3c 5581 69a7 71bc
000001e0: 9c6f 7cbc 41fb 7fbc ce3a 7cbc 7dc6 c500
000001f0: 1476 6e80 c184 7fbc cdd8 7cbc e27c 72bc
00000200: 6804 08be 512d 24be dab2 8ebd 3656 773d
00000210: c33d 0680 e19b e1bd c261 36bd ddcd 31bd
00000220: fca8 8f00 6660 edbd d4ae f0bd f449 4b00
00000230: 3bf8 ef3b 44da d339 9c4f 06be d7ba 46bd
00000240: 0dc5 b8bd 8413 41be 6505 7900 5846 8d3c
00000250: 8467 b0bd f4c4 32be 629d 40bc 3183 8c00
00000260: 0ffa 8abd 2420 99bd aec3 8380 bf10 803b
00000270: 111d e13d da94 3fbd f7c8 81bd 3a12 6800
00000280: 266c 663e f758 4b3e fa6a 943e 2720 66ba
00000290: 59a2 843e 8f95 cdbd 84e3 38bd 6f43 3ebb
000002a0: 0193 0f3d 0f7b 513e 2e33 c135 d017 133e
000002b0: cf38 2ebf ede0 1100 a9a4 b13d 3216 463e
000002c0: 2cde e13d e13a 693e 9bfe 413e 0f9f 1400
000002d0: 9b6b 813b 4248 1c3e c989 9c30 77e5 693e
000002e0: 909b 8fbb ebd2 9b3e 6b33 cf3d 5514 2d3b
000002f0: 91b0 c7bd e369 0d3e e802 653e 0ea6 bebc
00000300: b8b9 c2bd 2343 933c 9e2e b93d 08ff bc3d
00000310: aa81 d5bb c484 c3bd fc36 9bbd 72c5 05bd
00000320: d164 b13d 3bd5 683c 91fa 9abd ca0a f5bd
00000330: 7f51 a13c 5583 30ae acc4 a1bd f734 113c
00000340: 7e7b e83c e724 11be 68bb 7da8 3b1e bf39
00000350: ac7e b63d b7fc 803d 741f 5c3d eed6 3cba
00000360: 3ef8 96bd 8fe6 683d e7fc 79bc 8943 8b33
00000370: 3228 a93b 49f3 61be c47b e63d 6aad 791f
00000380: 54ef d9bd 995a 9f3d 924f 3d3d 6e9a d200
00000390: f2b5 00ba 9791 763d 3586 d5bb d717 a8bd
000003a0: edb4 a980 9564 03be f690 1900 a0ad 9bbd
000003b0: 328d ce80 1616 4300 3a26 ba80 70fa 8f3d
000003c0: bdb7 a1bd a491 0fbe f517 8100 002a 7380
000003d0: b964 ab3c f10a fb3d 7ecf 1100 2b28 3c00
000003e0: a27b 2ebc 1df5 f43d c06e 9301 e202 4c80
000003f0: ea13 07bc 6bfa 9a3d aaf3 90bd a23c 8800

net.4.bias f4 [16]
0.05353412 0.21297431 0.029999016 -0.00035044612 0.091079734 0.059623033 -0.07110423 -0.00359995
0.181268 -0.05180976 0.18119541 0.08635456 0.07160361 -0.018506696 -3.9146592e-11 0.062015336
00000000: 9846 5b3d f015 5a3e 7fc0 f53c 15bc b7b9
00000010: 0388 ba3d 4837 743d 189f 91bd 24ed 6bbb
00000020: 529e 393e 7936 54bd 4a8b 393e a9da b03d
00000030: eaa4 923d 5b9b 97bc 252b 2cae cb03 7e3d

net.6.weight f4 [1, 16]
-0.20688899 0.26530367 0.19578026 0.015796302 -0.16581537 0.18635866 0.0009625251 -0.06131562
0.1879818 -0.062274903 0.38598812 0.38833335 -0.039503537 -0.10004805 0.008843793 -0.2177338
00000000: b5da 53be e2d5 873e 9f7a 483e 3f67 813c
00000010: 81cb 29be ced4 3e3e f751 7c3a 1626 7bbd
00000020: 4d7e 403e f813 7fbd 3ca0 c53e a1d3 c63e
00000030: 76ce 21bd fee5 ccbd 8ee5 103c 9cf5 5ebe
